touch/data.pth (torch, 5015 bytes, 6 tensors)

l1.weight f4 [8, 54]
000000 4a 4e 66 bc 1f 5a 98 3d c6 dd 91 3e 64 58 ff bd
       -0.0140567515 0.07439064 0.28489512 -0.12468031
000010 93 3f fa 3d 16 bf 92 be 00 a4 2a b9 51 b8 b5 3e
       0.12219157 -0.28661412 -0.00016273558 0.35492185
000020 25 28 01 3f 53 fc c7 3e fe 50 22 be f5 98 95 bd
       0.5045188 0.39059696 -0.15851209 -0.07304565
000030 2a cb d7 3e d7 5d 61 3d 03 8f 9e 3d 8f d2 1b be
       0.4214719 0.055021133 0.07742121 -0.1521704
000040 99 19 12 be ca b5 92 be 88 02 e6 3e 70 c7 92 be
       -0.14267577 -0.2865432 0.44923806 -0.28667784
000050 b3 85 25 3e 13 b8 92 be d7 b7 92 be e2 1c f2 be
       0.16164283 -0.28656062 -0.28655884 -0.4728766
000060 cc c8 26 be 38 78 b6 bd c5 1f e9 3e 80 b1 88 3e
       -0.16287535 -0.08909649 0.4553205 0.26697922
000070 95 4a e8 3e 01 ae 1f bd 01 30 a0 be 52 ad f3 bc
       0.45369402 -0.038984302 -0.31286624 -0.029745732
000080 7d b7 86 be 90 e5 06 3f 93 60 50 3e 25 b9 26 be
       -0.26311865 0.52694035 0.2034934 -0.16281565
000090 df 5c 9c 3e ac fb fe 3e a0 5c 34 3c d4 3c f0 bd
       0.30539605 0.49801385 0.011008412 -0.11730352
0000a0 08 28 a5 be eb aa 28 3f 79 74 c8 bd 2a cc 59 3e
       -0.32257104 0.658858 -0.097878404 0.21269289
0000b0 a3 97 39 3e 58 2c c2 3e e4 e3 37 3d 06 50 11 3d
       0.18124251 0.37924457 0.044895068 0.035476707
0000c0 9a a0 b7 bc 2a 9e fe 3e b7 e8 20 be 11 27 c1 3e
       -0.022415448 0.49730045 -0.15713774 0.37725118
0000d0 fa 3e b1 bd a6 6e b2 3e d3 dd 5c bd a6 40 92 3e
       -0.0865459 0.34850043 -0.053922486 0.28564948
0000e0 3f df 06 3f 2a 20 b4 be 83 92 55 3d 67 e9 ab be
       0.52684397 -0.3518079 0.052141678 -0.3357651
0000f0 fd b5 1e 3f b8 42 f8 3e f9 32 1f 3f d7 e2 ae 3e
       0.6199644 0.48488402 0.62187153 0.3415744
000100 84 c0 3b be 7c db 16 be 10 bc a1 3e 51 36 23 bd
       -0.18335158 -0.14732164 0.31588793 -0.039846722
000110 79 da e9 3e 22 c9 41 be 1a 67 1c be d1 6e ac be
       0.45674494 -0.18924382 -0.15273705 -0.33678296
000120 ea 40 c2 3e f9 eb ab be 06 0d a9 bd cb e9 ab be
       0.3794015 -0.3357847 -0.08254437 -0.33576807
000130 af fc ab be c1 fc 07 bf 09 4e 7f 3e f9 de 14 be
       -0.3359122 -0.53120047 0.24932112 -0.14538182
000140 0c ad ba 3e 01 0a fd 3e 78 54 d9 3e 37 0f ee 3e
       0.3646015 0.49421695 0.42447257 0.46495983
000150 c3 e9 03 bf 92 79 0e be f7 58 03 be bf 8e d9 3e
       -0.5152857 -0.13913563 -0.12826906 0.4249172
000160 7e bf b9 3e 4d a4 93 be 49 69 ac 3e 99 0f e0 3e
       0.3627891 -0.2883629 0.33674076 0.437619
000170 9e 8d f0 3e fe 61 1b 3f 02 fb 89 be 02 d1 d3 3e
       0.46983045 0.606964 -0.26949316 0.41370398
000180 40 ef 95 3b 5a 02 a4 3e bd 0d b8 3e bc 5a ec 3e
       0.00457564 0.32033044 0.3594798 0.46162975
000190 af 9f c8 bc a7 13 01 3e 62 d6 4d 3e 74 a6 ef 3e
       -0.024490206 0.12605153 0.20101312 0.4680668
0001a0 b7 62 8d be d7 fe 64 3e 74 f7 db 3e a6 d8 e5 3e
       -0.27614376 0.22362839 0.4296223 0.44891852
0001b0 24 a7 e6 bd 8e 5c b0 3e 38 41 e7 bd 08 41 e3 3e
       -0.11262348 0.34445614 -0.11291736 0.44385552
0001c0 c7 11 09 3f d0 06 0b bf c1 43 a5 3e 15 9c b0 bd
       0.5354275 -0.5430727 0.32278255 -0.0862352
0001d0 a5 39 0c be 7e e7 07 3e 25 0b c3 3e 3d 28 4c bc
       -0.13693865 0.13271901 0.3809444 -0.012460765
0001e0 52 13 23 3f f4 f4 a4 bd 60 3f e3 3e 3f df c3 bd
       0.63701355 -0.080545336 0.4438429 -0.09564065
0001f0 9a 30 7d 3e 55 10 0b bf 58 95 b2 3e e7 dc 41 3f
       0.24725571 -0.54321796 0.34879565 0.75727695
000200 94 05 f2 bd c6 bf 07 3f 13 f3 de 3e 1d e7 03 3f
       -0.1181747 0.53027 0.43544826 0.51524526
000210 be fb d5 3d 34 c1 d1 3e ff 3c 09 3f 52 80 b2 3e
       0.10448407 0.40967715 0.536087 0.34863526
000220 a4 d9 51 3e ef 40 87 3e 56 e2 91 be 86 db 4b bd
       0.2049318 0.26416728 -0.28492993 -0.0497699
000230 ee 05 27 3e 67 74 b1 bd 1b 0e 13 3f cb db 0d be
       0.16310856 -0.0866478 0.574434 -0.13853376
000240 c4 99 77 3e b2 c1 8e bb b7 31 54 3e 1a 55 82 3e
       0.2417975 -0.0043565864 0.2072209 0.25455552
000250 0c 48 cb be 71 fc 2d 3f f9 4f d1 bd a4 24 aa 3e
       -0.39703405 0.6796332 -0.10220332 0.3323108
000260 25 23 87 3d bb 50 13 3f ac 12 d6 be 04 55 09 be
       0.065985 0.5754506 -0.4181112 -0.13411337
000270 72 aa f7 3e 2b 14 1f 3f 17 8c 0f be 9e be b3 3e
       0.48372227 0.6214015 -0.14018284 0.35106367
000280 a1 32 77 3e 67 32 0e 3e e8 a3 31 3f 63 b4 87 3e
       0.24140407 0.13886414 0.69390726 0.26504812
000290 24 4e 90 be 84 59 e0 be b1 e6 b4 be 18 41 3d 3f
       -0.28184617 -0.43818295 -0.35332254 0.7392745
0002a0 78 d9 b9 bd fd 2c 92 be 10 5c cb be f9 86 40 be
       -0.09074682 -0.28549948 -0.39718676 -0.18801488
0002b0 aa 55 b4 be 15 49 d0 bd e1 46 7b be e2 8d 25 be
       -0.35221606 -0.10170189 -0.24538757 -0.16167405
0002c0 f0 bd 44 bc 65 f2 b9 bd e6 1e 96 be 19 8c 3b 3f
       -0.012008175 -0.09079436 -0.2932045 0.7326065
0002d0 d8 38 4e 3e fc 0c 17 bf a0 ed 13 3f b9 97 1c bf
       0.20138872 -0.5900419 0.5778446 -0.6116901
0002e0 e8 c1 0d bf d5 bf 9d be b1 00 22 be b2 ca b6 be
       -0.55374 -0.3081042 -0.15820576 -0.3570152
0002f0 49 93 9d 3e dc 55 a7 bd 6b 8b dd 3e ae 7d 76 bd
       0.30776432 -0.08170673 0.4327043 -0.06017845
000300 00 a3 cc 3e 59 36 bd 3c 64 05 20 3f 0f f4 f5 be
       0.3996811 0.023097204 0.62508225 -0.48037764
000310 e2 42 5b 3e 62 eb ec bd 76 69 80 3e fc bf 9e be
       0.21412233 -0.11568333 0.2508046 -0.31005847
000320 3c d3 08 be 90 ae 6e bc d8 06 e1 3e 31 c0 aa 3e
       -0.1336183 -0.014567986 0.43950534 0.33349755
000330 14 e3 eb bd 88 cb 14 3e 3f 01 76 be a8 d8 3e 3e
       -0.11517921 0.14530766 -0.24023913 0.18637335
000340 1f 0c a2 3f 9a fd df 3e 05 78 82 3e 8f 1e b3 3e
       1.2659949 0.4374817 0.25482193 0.34984252
000350 89 74 9d bd 57 9f 3f 3e 76 72 5b be cb 1d c6 3e
       -0.07688243 0.18713127 -0.21430382 0.38694605
000360 ba d5 59 3d 6d f5 a6 be 5b 5f 25 3f 74 d0 ce 3d
       0.05318234 -0.3260912 0.64598626 0.10098353
000370 7a a0 cd 3e 5e 3f 63 3f 84 d9 a7 3e 23 12 cb 3e
       0.40161496 0.88768566 0.3278314 0.39662275
000380 8a 9d e5 3e c2 20 02 3f 99 02 6b 3e 4a 0e 2a 3f
       0.44846755 0.50831234 0.2295021 0.66428053
000390 01 3f 6e 3e 41 3c 3c 3f f7 03 45 be 14 cc 1b 3f
       0.23266222 0.7352944 -0.19239794 0.60858274
0003a0 54 21 91 3e 4b d1 57 3f 11 86 76 be 19 ef 8b 3e
       0.2834574 0.8430373 -0.2407458 0.27330855
0003b0 cc 14 39 be fe 29 3a 3e 47 82 c1 3e 58 d7 40 3f
       -0.1807434 0.18180081 0.37794706 0.7532859
0003c0 3b 9e 0e 3f df c9 bd 3e 49 79 d5 bd 57 c1 31 bf
       0.5571019 0.37068078 -0.10423524 -0.6943564
0003d0 27 5b 8d be 65 37 0d bf 86 95 e8 3e 56 53 4f 3f
       -0.27608606 -0.5516265 0.45426577 0.80986536
0003e0 74 1d c2 3e 33 a3 2c 3f 64 c8 29 be 2a 43 30 3f
       0.37913096 0.6743652 -0.16580349 0.68852484
0003f0 e6 b7 6d bd 34 c2 02 3f 8f ac 02 3f a2 af 08 3f
       -0.058036707 0.5107758 0.51044554 0.53392994

l1.bias f4 [8]
000000 d1 b2 92 3e 1f ea ab 3e f1 04 0b 3f f0 73 49 3f
       0.2865205 0.33577058 0.54304415 0.7869253
000010 6e 73 6d 3f fe c7 4d 3f 6a 71 ec 3e f5 82 6c 3f
       0.92754257 0.8038329 0.46180278 0.92387325

l2.weight f4 [8, 8]
000000 3b da b4 3e 00 6a b0 be 5e 52 37 be cf 70 4a 3e
       0.35322747 -0.34455872 -0.17902514 0.19769596
000010 5c 3b 5b be b8 b5 9a bc 34 fe 66 3d 7e 34 9c bd
       -0.21409363 -0.018885478 0.05639477 -0.076271996
000020 bf 36 0b bf e2 c6 13 bf 7d bf 9d 3e 56 1e 77 bf
       -0.5438041 -0.57725346 0.30810156 -0.96530664
000030 da 8d c5 3f 31 38 c3 3f 93 fe 2e be bd 6a 33 3f
       1.5433915 1.5251523 -0.170893 0.70084745
000040 9e d6 aa 3e ac a8 e0 3d 8b 8f 43 3e 32 ad 8c 3f
       0.33366865 0.109696716 0.19097726 1.0990355
000050 8a 36 4b 3f 77 3f 74 bf 01 f8 65 be 2e e3 8c 3f
       0.79380095 -0.9540934 -0.22457887 1.100683
000060 d6 34 01 bf fd ab 68 bf d1 4c 6a 3f 78 11 85 bf
       -0.50471246 -0.90887433 0.9152346 -1.0395956
000070 60 1c 4a 3e 5c bf 14 bd 06 70 e9 3e a0 d4 9e 3f
       0.19737387 -0.036315307 0.4559328 1.2408638
000080 06 a8 2a 3f 23 50 7c 3f f5 25 9c 3f c2 a2 c0 be
       0.66662633 0.9855978 1.2199084 -0.37624174
000090 21 47 67 3c fe 48 8e be 78 25 67 3f 43 04 7c 3f
       0.01411608 -0.27790064 0.9029155 0.98444
0000a0 6a 3a 51 bf 1a 2f 37 bf 26 8f a3 be 77 90 a9 3f
       -0.8172976 -0.71556246 -0.3194515 1.3247212
0000b0 3f ff 7a 3e 07 51 94 3e 4f 67 12 be ce 06 a7 3f
       0.24511431 0.2896807 -0.14297222 1.3048952
0000c0 99 1e 5b be 12 d5 0d be 3e 89 8d 3f ca 28 53 3d
       -0.21398391 -0.13850811 1.1057508 0.05155257
0000d0 02 80 49 bf cb de b6 3e 75 ef b4 3f e6 ca 11 3f
       -0.7871095 0.35716853 1.4135576 0.56950223
0000e0 e5 ba 90 3e 78 59 14 bd d0 cb 1f bd 5a f1 da bd
       0.2826759 -0.036218137 -0.03901273 -0.106905654
0000f0 00 03 b2 be 9a cb 88 be 90 5d c7 3c e3 b5 10 be
       -0.34767914 -0.26717836 0.024336606 -0.14131884

l2.bias f4 [8]
000000 aa 55 d2 be 71 1e 26 3f 12 8e c8 3d 8c 97 18 3e
       -0.41080981 0.648902 0.09792723 0.1490156
000010 ec aa 09 3e 2a c8 5a 3f 8f 43 1a 3e 67 19 67 be
       0.13444108 0.85461676 0.15064834 -0.22568284

l3.weight f4 [7, 8]
000000 7d 97 ef bd 2d 74 44 3f 2b ff 0d c0 ea 8e b0 be
       -0.11698816 0.7673977 -2.2186992 -0.34484035
000010 98 99 9d bf fc b4 c5 bd 13 24 3d bf 80 23 60 bb
       -1.2312498 -0.09653661 -0.7388317 -0.0034200847
000020 f8 76 7c 3d 15 aa 5e bf b7 05 8b bf 51 a2 a8 bf
       0.061636895 -0.86978275 -1.0861119 -1.3174535
000030 89 b2 cf 3e e1 8c 98 bf 2d 72 2b 3f 16 13 45 be
       0.405659 -1.1917993 0.66971093 -0.19245562
000040 14 7a f5 3c ea ca b2 3e 23 65 7d be f7 53 f6 bf
       0.029965438 0.34920436 -0.24745612 -1.9244374
000050 b1 7a c0 bf 73 77 15 3f 3c 8b 38 bf de 13 91 be
       -1.5037442 0.5838539 -0.72087455 -0.2833547
000060 11 05 3c be 0f 11 ae 3c e0 77 58 bf 09 d7 4a 3f
       -0.18361308 0.021248369 -0.84557915 0.7923437
000070 ae 88 55 be a4 f0 5e be 18 ec 17 3e d8 72 e2 3d
       -0.2085292 -0.21771485 0.14836156 0.11057061
000080 e8 3b 84 3e 06 31 91 bf 33 ba 43 3f 8f 72 24 be
       0.25826955 -1.1343086 0.7645599 -0.16059326
000090 d5 87 38 3e 0c fe 84 bf ff 75 3d bd 6b 7f 53 be
       0.18020566 -1.0390029 -0.046255108 -0.20654075
0000a0 c6 98 6c be 3b 23 b5 3e 4f 59 8e 3c 9e 67 c6 bf
       -0.23105153 0.3537844 0.01737657 -1.5500371
0000b0 b8 d5 f5 3e 8c 57 b5 bf ef 3c 7e bf e7 a3 68 be
       0.48014617 -1.4167342 -0.9931173 -0.22718774
0000c0 ad 8f 77 be d9 fa bd bf ef 71 60 3f 5b 76 b2 bf
       -0.24175902 -1.4842178 0.8767385 -1.3942369
0000d0 4a fc 0e bf a7 77 15 3f cc ff f0 be 26 77 63 3e
       -0.5585371 0.583857 -0.47070158 0.2221342

l3.bias f4 [7]
000000 07 2d 17 bf 0f 49 8e 3e 7e 6c aa 3d 7b 87 de be
       -0.5905308 0.27790114 0.083214745 -0.43462738
000010 c8 e4 e8 bd 99 46 72 3e 0e 9a a4 3e
       -0.113717616 0.23659743 0.32148784
